PredictionAgent/best_model.pth (torch, 79533 bytes, 8 tensors)

lstm.weight_ih_l0 f4 [256, 7]
00000000: 4ccc 86bb f536 f1bb 3a84 35bd b451 9dbb
00000010: f52a 61bb 6bf3 43bb 05f2 a0bd e7f7 23bc
00000020: 07e8 b93a 62e9 03bd c3b4 1bbc 8e76 c6bc
00000030: 5577 12bc 231c 63bd 3602 07bc 77d8 11bc
00000040: 648d 2cbd 7679 f5bb 6b46 3ebc 5215 0438
00000050: 295c 6cbd b835 0f3c 1e3e e1ba 19d6 02bd
00000060: 0b74 073c 3d18 1d3b d2bb 733c 2061 55bd
00000070: 7198 16be 1944 59be 7d68 42bc 89f2 07be
00000080: dea3 913e c4ff 883d e521 0a3d ed52 8dbd
00000090: 3fea 98bc e953 a23d e895 98bd ea92 363d
000000a0: b449 c53d 275b 043d 0039 3cbc 9376 f1bb
000000b0: bd3d 13bd 4220 33bc 0ae1 8bbc dab8 4dbc
000000c0: 29d8 8bbd 7b25 b63b 6017 5239 b29e 09bb
000000d0: 8f45 fb3b 3899 54bd d980 7cbb a448 bd3d
000000e0: 6998 3abd 7440 10bc 7d5e fe3c d1ac 63bd
000000f0: 91fa 603c fcb0 993d f687 bd3c db1e f5bb
00000100: fbb1 f23a ca33 f0bc acfb dfbb 6a44 0cbc
00000110: a374 cfba c979 5cbd f023 7bbd b3b8 d73c
00000120: 4f6e 663d c68a 8dbd 1949 093c b531 673d
00000130: 66a3 9a3a eddb b2bd 5d89 0c3e 0c94 05be
00000140: 49db 9cbd 8776 833e b5b9 993e bcc8 bfbd
00000150: 3586 0fbb ae84 48bb 6024 35bd e0fa 03bb
00000160: 5b00 4bbc 666a 9d3b 1cb6 95bd a57f f23c
00000170: 9032 94bd 8b4e 5bbd 7b9b 1a3d aed1 c63d
00000180: a72a c63c ed79 a4bc 0629 d3bb dfde f8b9
00000190: d43a 2abd 569d cebb 6917 85bb 93c6 2d3b
000001a0: f867 9bbd 227b e2bb 1b86 c6bb cf18 1bbd
000001b0: 0e1c e8bb f494 05bc 441a 72bb b556 89bd
000001c0: 3ca9 3abc 47ff 17bb 8347 fbbc 4f58 38bc
000001d0: 22a2 3dbc 8ec5 8cba 25a8 6ebd f015 c5bb
000001e0: 7dc8 11bc a665 46bd c3a0 c0bb 508b f5bb
000001f0: d222 eb3b f0c1 81bd 5a7b c4b8 c5a1 50bb
00000200: a1b9 5ebb 95f8 043b b2ab 77bd 1bca bc3a
00000210: 316c a73d 4c57 d7bb 5177 9aba 6e56 cebc
00000220: c2a8 c2bb ee08 16bc 17b6 2abb 8a30 5cbd
00000230: d640 acbb 22bd b7ba f738 2ebd ebac 66bb
00000240: 1249 cfba 55a7 543b 6212 77bd a494 3ebd
00000250: 9a1f d8bd 3316 76bd ee9f 6abd 0d05 3b3e
00000260: 040f ed3d 808b 77bd 49ba 9a3c cd58 9bba
00000270: 2f68 d43b 32a1 ad3c a16d a3bc 7f37 ceba
00000280: a0a6 7c3d 5fe4 73bc c57d d4bb 72e2 e4bc
00000290: f91f 68bc dab0 92ba e647 0ebc 998c 62bd
000002a0: 745b 5dbc 2795 3bbb 8e75 2fbd 14ef 45bc
000002b0: e150 98bc 3ecc 15bc 2421 75bd 8409 ecbd
000002c0: a49b 28be f109 03bd b1e2 e9bd c863 703e
000002d0: e0b0 e73d 0180 0c3c e195 b9bb 2314 aebb
000002e0: 8b59 1fbd a5e0 b1bb 942a 4fbc 857f 3d39
000002f0: a38b 92bd 3928 f3bc 6d25 33bb 9bca b73d
00000300: 75f4 31bd 30bf 92bd 57c0 0a3e 507c a73d
00000310: 42b5 2bbf d6cc dd3d 3be5 f93c 85ac c5be
00000320: 763d e1bd 20df 23be 9ad8 c8be 5da2 04be
00000330: ac93 143f 2471 30be 61b8 91be 1484 f2be
00000340: f70c f7bc 6235 98be 9f03 39bc fadd 02bb
00000350: 1bb4 f4bc 5438 31bc 7f9a 1cbc 4f74 aa39
00000360: 4754 56bd 06b4 c93c 30e8 febd 9d56 e53d
00000370: ecc7 e03c 5bc0 683e bea9 033e dc8e 513e
00000380: 862e 1cbc b982 74bb 8e40 1bbd 990a 0ebc
00000390: d1b5 0cbc 7915 2d3b b11b 7ebd 8dd0 53bb
000003a0: 324d 1c3b 4f7b 53bd c61f 1bbb 2853 17bc
000003b0: 9cbc d23b cf36 83bd 590e b4bd a00f 2fbd
000003c0: fc92 013d adfd babd ec3c 923d c4ee 493d
000003d0: af1e 0b3c 8e12 46bb 98e3 2bbc 6530 ca3c
000003e0: b2e5 12bb 6379 b5bc e851 14bc ae18 5f3d
000003f0: d71c 6fbc e17b 37bc ced0 34bd 508f 6bbc
-0.0041137096 -0.0073612877 -0.044315554 -0.0048009995 -0.003435788 -0.0029899727 -0.078586616 -0.010007835
0.001418353 -0.032204993 -0.009503546 -0.024226453 -0.008939584 -0.055446755 -0.008240273 -0.008901707
-0.042127028 -0.007491286 -0.011613469 3.149111e-05 -0.05770508 0.008740835 -0.001718465 -0.03194246
0.008267413 0.0023970746 0.014876323 -0.05209458 -0.1470659 -0.21217383 -0.011865732 -0.13276114
0.28445333 0.066894084 0.03372373 -0.069005825 -0.018666385 0.07926161 -0.07450467 0.044573702
0.096331984 0.032313492 -0.011488199 -0.0073688715 -0.03594755 -0.010932984 -0.01707508 -0.012556279
-0.06828339 0.0055586672 0.00020035869 -0.002099913 0.007668204 -0.051903933 -0.0038528948 0.09242371
-0.045555506 -0.008804429 0.031050915 -0.055584732 0.013731615 0.0750446 0.02313612 -0.007480485
0.0018516177 -0.02932157 -0.0068354215 -0.008561233 -0.0015827607 -0.05382708 -0.06131357 0.026333189
0.056257542 -0.069112346 0.008379244 0.05644389 0.0011797964 -0.08733354 0.13724275 -0.13044757
-0.07659013 0.25676367 0.30024496 -0.09364459 -0.0021900062 -0.0030596661 -0.044224143 -0.0020138547
-0.0123902215 0.0048039434 -0.07310125 0.029601881 -0.072362065 -0.0535417 0.037745934 0.09707962
0.02419026 -0.02007767 -0.0064440994 -0.00047468298 -0.04156001 -0.006305377 -0.0040616286 0.0026516065
-0.0758819 -0.006911651 -0.006058467 -0.037865456 -0.0070834225 -0.008153189 -0.0036941925 -0.06705991
-0.011392888 -0.0023192929 -0.030673748 -0.011251523 -0.0115743 -0.0010740028 -0.058265824 -0.006014578
-0.008897898 -0.048436783 -0.0058785393 -0.007493414 0.0071757818 -0.06335819 -9.368984e-05 -0.0031834703
-0.0033985155 0.0020289768 -0.060466476 0.0014403494 0.08174933 -0.006571686 -0.0011784827 -0.025187697
-0.0059405277 -0.009157402 -0.0026048475 -0.053757228 -0.0052567525 -0.0014018158 -0.042534795 -0.0035198282
-0.0015814623 0.003244837 -0.060320266 -0.046528473 -0.105529025 -0.060079765 -0.057281427 0.18263645
0.1157513 -0.060435772 0.018887656 -0.0011852026 0.006482146 0.021195028 -0.019949736 -0.0015733092
0.061682343 -0.014885991 -0.0064847195 -0.027940009 -0.014167779 -0.0011191622 -0.008684134 -0.055309866
-0.013510574 -0.0028622837 -0.04283672 -0.012080926 -0.018593254 -0.009142933 -0.05984606 -0.115252525
-0.16465622 -0.031991903 -0.11420191 0.23475564 0.11313033 0.00857544 -0.005663619 -0.005312459
-0.038903754 -0.005428391 -0.012644429 0.0001807195 -0.0715554 -0.029682266 -0.002733554 0.08974191
-0.043446023 -0.07165372 0.13549934 0.081780076 -0.6707345 0.10830085 0.030504813 -0.38608184
-0.10998051 -0.16003084 -0.39227754 -0.12952562 0.5803783 -0.1723066 -0.28460982 -0.47366393
-0.03015755 -0.29728228 -0.011292367 -0.0019968734 -0.029871037 -0.010816652 -0.009558319 0.00032511583
-0.052326467 0.024621975 -0.1244663 0.11198161 0.02743908 0.22729628 0.1285772 0.20464653
-0.009532576 -0.0037309362 -0.03790336 -0.008669519 -0.00858827 0.0026410504 -0.062038127 -0.003232035
0.0023849723 -0.051631268 -0.0023670061 -0.009236135 0.0064311754 -0.06406938 -0.08791799 -0.04273951
0.031634316 -0.09130416 0.07140526 0.04929997 0.008491202 -0.0030223462 -0.010491274 0.02468128
-0.002241474 -0.022152608 -0.009052731 0.054466896 -0.014594278 -0.011198969 -0.044144444 -0.01437743

lstm.weight_hh_l0 f4 [256, 64]
00000000: 95dc d63a 52b6 3c3a cfd1 d23a 54be 14b9
00000010: 0cc9 073a cfa9 babb af1e c539 a1d7 99bd
00000020: bbd7 bbbb 25d6 09b9 ebcb a7bb 43a5 cc3d
00000030: 0b6d d33a 6cab 2e3a f71f ca3a c32a 743a
00000040: ec0d dfb7 98c7 b73a 91bf b83d 2e40 3238
00000050: 7301 563a 8abb 83bb 17ad b9bd b538 aeb8
00000060: f203 a73a 861c 57bb ffd5 293a 4e8e acbb
00000070: 8329 96bb fddb 5f3b d8a5 c238 5e72 e139
00000080: 1e12 8338 e048 763a d90e 85bb cd29 b33d
00000090: f046 d339 df32 99bb d1a3 b63d 0fcb 98ba
000000a0: 8d31 98bb 1531 4c3d 1bf7 7a3a 6bcb acbb
000000b0: 3b85 2339 450d b7ba 96a4 383a d71a 98bd
000000c0: 0f5b 74bb 3952 b938 e0b7 98bb f25e a4bd
000000d0: 6722 b33a 5896 8ebb 7935 463a 0a1f 113a
000000e0: 17dd 6eba a593 ae39 bb13 d439 46e2 8fbd
000000f0: 2fa2 843a 5e8b 8739 d196 72bb 27ac d0b9
00000100: 12f5 833a e546 473a 6711 e73a ff1a bcba
00000110: e51a 4e3b 1aee a6bb 0aa2 b7b9 c9a6 6ebd
00000120: bda9 c3bb cd50 6db8 1c1d a8bb 1ef2 983d
00000130: 0e43 323a 0e87 95ba 79c6 2039 80c1 133a
00000140: a079 e638 96b3 253a 1d57 903d 3d1a 6aba
00000150: e0d4 55ba bef6 64bb 41e9 90bd 17ea bbba
00000160: 2458 c639 7c7b fdb8 92cf 9338 183e 2cbc
00000170: 9a1a 4b3b 042e 33bb 8ba3 07b8 a050 a83a
00000180: b846 a7ba 99ac 043a 4e34 4dbb e4af 8b3d
00000190: 30ef 9fb8 69ab 9ebb 4674 8e3d bbb0 0c3b
000001a0: 82cd d1bb a5e1 153d e407 bbb8 17d0 cdbb
000001b0: 7c5e c9b8 c3d2 c2ba 5249 de37 9b80 6dbd
000001c0: 3c8f 75bb 3bb8 ebb9 eae3 a1bb 83ea 7ebd
000001d0: efbd 923a 4d7b 72bb ff2a 60ba 7370 9fb9
000001e0: 4cf4 b2ba a07e afb9 a8df f9b8 3bdc 5fbd
000001f0: df3d de39 5b2b f5b9 010e b2bb 3305 d2ba
00000200: e347 203b 1819 093b 0aa6 523b 2e0a 9b39
00000210: f203 5cbb 2fdc 14bc bb1b 983a 867a 92bd
00000220: f763 10bc 0f0c 503a 4651 07bc e401 b03d
00000230: a953 0d3b d161 963a a931 ed3a 548d f43a
00000240: 5db1 2d3a 4deb 163b feec ac3d 8cfa 5bb8
00000250: 6181 b33a a3ec 04bc 225b adbd 0ecb 4f3a
00000260: ecdc df3a 6b2b dbbb a211 af3a 693b 38bc
00000270: 4df4 c93b df2e a9ba a73e 843a 544b e03b
00000280: 9ce1 ad36 2751 053b 61ef 04bc 662c a73d
00000290: 20b0 a03a 509a 05bc 4e8e aa3d 659d a4bb
000002a0: 11e2 1dbc 6a44 3d3d 0f4f ef3a 375b 21bc
000002b0: a2cd 4e39 1c2f e638 f6ac 943a 9fe3 91bd
000002c0: 4d21 00bc 3b9c 933a fe92 0fbc a14e 93bd
000002d0: 2d40 153b 309d 01bc 8443 8d3a 35e5 cf3a
000002e0: 4483 c0bb 7c99 853a 0047 a23a 826c 8abd
000002f0: ada7 e83a 88d3 a73a 1123 0bbc 84dc a839
00000300: 115e 4139 8d0b cb3a 9862 fa39 e1a8 8e3a
00000310: 1d9f 2cbc 48e1 48bc 4aa1 9d39 5ab9 60bd
00000320: daf4 4abc 1856 ae3a 4e82 3cbc f162 853d
00000330: 34d9 783a 268f 41b9 b4a3 5a3a 760e b63a
00000340: 2fd1 f5b8 a13e 843a c993 893d 8ed8 cb38
00000350: d7d9 d23a f79d 52bc f058 89bd cf84 893a
00000360: 0351 343a 0263 2fbc 4b90 d139 4dbe 92bc
00000370: be89 41bc 536c b0bb d83d e339 1f48 1bbc
00000380: b1d9 0a3a d1ac 973a 2708 36bc 6da7 843d
00000390: d006 9539 ad60 54bc 3cc8 873d dd32 19bc
000003a0: 8ae2 60bc 9257 0e3d e1bb a43a aa1f 6fbc
000003b0: 8a76 16ba 01f1 4d39 92ff 9f39 c794 5dbd
000003c0: 9957 3cbc a5e9 923a c355 48bc 9601 67bd
000003d0: f2fc cd39 3f85 50bc 7760 c83a 2a9b a639
000003e0: 4539 2dbc b558 6d3a 556e 2a3a 2eeb 4ebd
000003f0: 9e7b 283a fbed 8c3a a26c 51bc a314 fd3a
0.0016392643 0.00071987987 0.0016084256 -0.00014185283 0.00051797996 -0.0056965123 0.0003759763 -0.07511831
-0.005732504 -0.00013145113 -0.0051207445 0.09992459 0.001613052 0.0006663117 0.0015420903 0.00093142333
-2.6590154e-05 0.0014021276 0.090209134 4.249828e-05 0.0008163668 -0.004020159 -0.090662174 -8.307529e-05
0.0012742265 -0.0032823398 0.0006478726 -0.0052659875 -0.0045825853 0.0034158223 9.281532e-05 0.00043000554
6.249941e-05 0.00093950145 -0.004060608 0.08748207 0.0004029791 -0.0046752538 0.08917964 -0.0011657196
-0.004644579 0.049851496 0.0009573565 -0.0052732727 0.00015594524 -0.0013965747 0.0007043568 -0.07426994
-0.003728572 8.8368026e-05 -0.0046605915 -0.08025922 0.0013666869 -0.0043514185 0.00075610686 0.0005535936
-0.00091119244 0.0003329787 0.0004045049 -0.0702558 0.0010119135 0.00025853043 -0.0037016163 -0.00039801115
0.0010067543 0.00076018117 0.0017629088 -0.0014351307 0.0031449136 -0.005094302 -0.00035025208 -0.058264527
-0.005971162 -5.6580455e-05 -0.0051304232 0.07468055 0.0006800153 -0.0011408047 0.00015332726 0.0005636439
0.00010989909 0.0006321011 0.070478655 -0.00089303014 -0.0008157026 -0.003493711 -0.0707574 -0.0014336732
0.00037831173 -0.00012086981 7.048169e-05 -0.010512851 0.0030991198 -0.002734066 -3.233882e-05 0.0012841411
-0.0012762165 0.00050611194 -0.0031311694 0.06820658 -7.626263e-05 -0.004842211 0.06955771 0.0021467644
-0.0064026723 0.036592145 -8.9183246e-05 -0.0062809098 -9.602026e-05 -0.0014863837 2.6498605e-05 -0.057983976
-0.0037469408 -0.00044959955 -0.0049404996 -0.062235367 0.0011195521 -0.0036999763 -0.0008551329 -0.00030410624
-0.0013653128 -0.00033472944 -0.000119149045 -0.054653388 0.00042389237 -0.00046762344 -0.0054337983 -0.0016023278
0.002445691 0.0020919498 0.0032142424 0.00029571488 -0.0033571688 -0.009085699 0.0011604944 -0.07152276
-0.008812896 0.0007936367 -0.008259123 0.085941106 0.0021564758 0.0011473243 0.0018096465 0.0018657842
0.00066258555 0.0023028434 0.0844364 -5.244701e-05 0.0013695174 -0.008113059 -0.08464648 0.0007926681
0.001707939 -0.0066885254 0.0013356695 -0.011244633 0.006163156 -0.0012907645 0.0010089473 0.0068449173
5.182066e-06 0.002034256 -0.008113713 0.08162765 0.0012259521 -0.008154467 0.08327924 -0.0050236457
-0.009636418 0.046207823 0.0018257814 -0.0098484075 0.00019722295 0.000109760294 0.001134305 -0.071234934
-0.0078204395 0.001126177 -0.008763073 -0.07192732 0.0022773847 -0.007911012 0.0010777568 0.0015861156
-0.005875023 0.0010192837 0.0012380779 -0.067589775 0.0017750167 0.001280413 -0.008492247 0.00032207754
0.00018440957 0.0015491113 0.00047757174 0.001088407 -0.010535982 -0.0122607425 0.00030065543 -0.054864265
-0.012387479 0.0013300804 -0.011505676 0.06513012 0.0009492815 -0.00018459241 0.00083404337 0.0013889808
-0.00011721474 0.0010089466 0.06717641 9.720131e-05 0.001608665 -0.012855045 -0.067064166 0.001049185
0.0006878527 -0.010704758 0.00039971093 -0.017913008 -0.011812625 -0.005384007 0.0004334289 -0.009477644
0.0005296721 0.0011571889 -0.011110342 0.064772464 0.0002842457 -0.012962502 0.066299886 -0.009350506
-0.013725886 0.034751482 0.0012568199 -0.014594952 -0.00057397096 0.00019640104 0.00030517258 -0.054096963
-0.011495494 0.0011208548 -0.012227478 -0.056397997 0.00039289106 -0.012727081 0.0015287538 0.00031777594
-0.010572736 0.0009054051 0.0006501426 -0.050517254 0.0006427112 0.0010752076 -0.012782248 0.0019308518

lstm.bias_ih_l0 f4 [256]
00000000: 6bd9 ccbd 96d8 9fbd 01f9 c0bd 1f15 9cbd
00000010: c995 f23c 18bc 3ebc 6813 b7bd b2ac e13d
00000020: b777 09bc f510 9bbd 2b8d 36bd 56d4 81bd
00000030: 18d9 d1bd e551 20bd b990 c6bd 6795 bcbd
00000040: 94e1 a0bd 1bad cdbd 249b d83d 3175 96bd
00000050: 9224 bcbd 1dc4 d8bc 4c16 c13d 6286 9ebd
00000060: 4e65 b8bd ee63 0fbc 53e4 c3bd 0d62 b5bc
00000070: 3968 5bbd 6ba4 31be 1155 93bd 585f 6d3e
00000080: 9698 acbd ac71 c9bd d930 4fbc cfe2 b83d
00000090: b10e cbbd 9867 0ebd 0a9a c93d 2fc8 1e3d
000000a0: ae62 39bd 9a2f 9a3d d6e6 b8bd f4bf 92bc
000000b0: ae99 97bd eb4b 99bd 6881 92bd 1d66 c33d
000000c0: a825 06bd 9814 a1bd b823 52bc 5343 e6bc
000000d0: 2183 a4bd a4f5 e0bc 7c35 94bd 14cd c7bd
000000e0: 965e 25bd 20d3 adbd ca70 c3bd ca82 a73d
000000f0: e495 a4bd 2e2f 8ebd 85bd bbbc 9cbe 92bd
00000100: 04c7 07bd a42e ddbc 6819 1cbd 5f98 cdbc
00000110: 113c 97bd e456 a9bd 0ccf 0abd 0329 2b3e
00000120: 110b 7fbd cc83 00bd f464 87bd 9d62 833e
00000130: de60 0ebd 33ec 92bd 9ebc 19bd 9800 04bd
00000140: 89a7 02bd 2388 15bd e525 343e 827d e2bc
00000150: 2473 e9bc f274 33bd b8f9 253e 50df 11bd
00000160: 55a4 0dbd 5b9e bbbd 7458 09bd 4a54 153e
00000170: 9972 a43e b92c 8c3e 20bb f1bc 05fa fd3c
00000180: 8f28 03bd b354 d4bc 13d3 c0bd a591 1e3e
00000190: 0e71 21bd 62f8 aebc 553a 293e e0d2 c2bd
000001a0: ca89 f3bb 1612 0a3e f3f0 05bd 9d54 00bd
000001b0: 8274 10bd b2d6 16bd 09db f7bc 382b 213e
000001c0: 5033 88bd 4d52 08bd 2d3b 3fbd f349 133e
000001d0: 46ab febc 72ea 90bd 1f9c ebbc c78f 04bd
000001e0: 7402 07bd a4a9 12bd 8971 07bd f53e 133e
000001f0: 4e09 10bd 8cd1 a8bc 8ee3 88bc dd4a cbbc
00000200: bb03 be3a d8f9 023c 08db 98bc 2aba 043b
00000210: 789b a03c 743b 8a3c bd1b 033b 6628 3e3e
00000220: 67f8 453b c308 243c 3818 823c 2191 85bd
00000230: 31fa 77bc 1bdc 97bd e425 7a3b e847 debb
00000240: f69a ce3b 7a89 a0bc fae0 27be b9d5 ef3b
00000250: 108e 29bd e00e 9a3c c53f 2d3e fd8d 333c
00000260: d3c8 8dbc 6fa8 143d db63 863b 4611 7abd
00000270: b7bb 593d bdd0 953d 6beb 163c a70a ca3d
00000280: f71e 0c3b ed78 f4bc e3df 1c3d b9b2 2cbe
00000290: 4a95 073c de3e 26bd 47eb 35be c64b 203d
000002a0: a22e 44bc 1c92 16be a55a 573c 6e31 053c
000002b0: 316a e53a bb4a 503c 4cdc 833b 1d71 3b3e
000002c0: aa64 0bbc d694 233c d338 c03a b743 a93d
000002d0: fdeb 71ba bca6 963c 9be3 73bb 09c0 9abb
000002e0: 4a6d 543b 5cfa fdba 892d 883b 37e5 1c3e
000002f0: 011c faba 97b2 3b3c d37c 5abc e60e 1b3c
00000300: ed5a cdbd a902 a1bd b6b6 c1bd 5dab 9cbd
00000310: aaa4 3a3d bee1 8fbc d4de b7bd 3013 2d3e
00000320: 0d92 16bd 41ed 9bbd bb2f 93bc dd28 8f3e
00000330: d4e1 d3bd 12dd 18bd a73d c7bd 19a2 bdbd
00000340: e0e1 a1bd e331 cebd 7524 7c3e 6fe5 96bd
00000350: 079f bbbd 25f0 603a 87b2 5c3e 591b 9fbd
00000360: ff4c b7bd 7853 e03c 4cc8 c4bd be5e 99bc
00000370: 03a9 8a3d 1984 133e 23c4 93bd f2a7 5f3e
00000380: 3396 adbd 726c c5bd ba39 713c e3af 543e
00000390: 65e5 cbbd b208 2abd ef84 683e 2ca7 983d
000003a0: c943 2fbd e71e 033d 601b babd 67c8 abbc
000003b0: 8ff0 97bd 00a6 99bd 8c1e 93bd b8b3 233e
000003c0: d9c7 ffbc 458d a1bd 4c9c 36bd 0331 463e
000003d0: 41e5 a4bd 9b59 9cbc 67c6 94bd 2f50 c9bd
000003e0: 74d8 65bd 2449 aebd b46b c5bd 9bbe 093e
000003f0: 7408 a5bd 9a2a 8fbd 5a49 82bd dd2a 93bd
-0.10002407 -0.07804982 -0.09422494 -0.07621216 0.029612439 -0.011641525 -0.08939248 0.11019267
-0.008390359 -0.07571594 -0.044568222 -0.06339328 -0.102464855 -0.0391406 -0.096955724 -0.09208184
-0.078555256 -0.10042783 0.10576466 -0.07346571 -0.09186663 -0.026460702 0.09428081 -0.07740475
-0.09003697 -0.008751852 -0.09565034 -0.02214148 -0.05356619 -0.17347877 -0.071939595 0.23180902
-0.08427541 -0.09836134 -0.0126459235 0.09027635 -0.099149115 -0.034766763 0.09843834 0.03876513
-0.045260124 0.075286105 -0.090284035 -0.017913796 -0.07402359 -0.07485183 -0.071535885 0.09540961
-0.032750756 -0.07865256 -0.012825899 -0.028108275 -0.08032823 -0.02746088 -0.07236764 -0.097559124
-0.040373407 -0.084875345 -0.09542997 0.08179243 -0.08036402 -0.069425926 -0.022917518 -0.07165262
-0.03314878 -0.026999779 -0.038110167 -0.02509707 -0.07384504 -0.08268526 -0.03388886 0.16714863
-0.062266413 -0.03137569 -0.06611052 0.25661173 -0.03476035 -0.07173958 -0.037533395 -0.03222713
-0.031898055 -0.036506783 0.1759258 -0.027647737 -0.028497286 -0.0438127 0.16208541 -0.035613358
-0.034580547 -0.09161063 -0.03353162 0.14582935 0.3211868 0.2737787 -0.029508173 0.031003008
-0.0320211 -0.025919294 -0.09415259 0.15485246 -0.039414458 -0.021358673 0.16526158 -0.095128775
-0.007432197 0.13483462 -0.03270049 -0.031330694 -0.03526736 -0.036825843 -0.030255811 0.15739143
-0.06650412 -0.033281613 -0.046687294 0.14383678 -0.031087529 -0.07075967 -0.028760968 -0.03236368
-0.032961324 -0.035806313 -0.03306726 0.14379485 -0.035165124 -0.020607732 -0.016710069 -0.024815971
0.0014496961 0.007994138 -0.01865913 0.0020252564 0.019605383 0.016874053 0.0020005547 0.18570098
0.0030207874 0.010011855 0.015880689 -0.06521822 -0.015135334 -0.07415029 0.0038169557 -0.0067834742
0.006305094 -0.019596804 -0.16394415 0.007319179 -0.041395247 0.018805921 0.16918857 0.010959146
-0.017307675 0.036293443 0.004101259 -0.06105163 0.053157534 0.07315204 0.009211401 0.09865313
0.0021380761 -0.029842818 0.038299453 -0.16865052 0.008275339 -0.0405873 -0.17765532 0.039134763
-0.011974009 -0.14704174 0.01314417 0.008129461 0.0017502961 0.01271313 0.004024064 0.18304868
-0.008507887 0.009984216 0.0014665372 0.08264869 -0.00092285854 0.018390052 -0.003721452 -0.0047225994
0.0032413774 -0.0019376981 0.004155819 0.15321814 -0.0019081832 0.011456153 -0.0133354245 0.009464001
-0.10027108 -0.078618355 -0.094586775 -0.076498725 0.045567192 -0.017563697 -0.08978048 0.1690185
-0.03676038 -0.07613612 -0.017967096 0.27960864 -0.10345808 -0.037320204 -0.09728556 -0.09259433
-0.0790441 -0.10068109 0.24623282 -0.0736798 -0.091611914 0.0008580706 0.21552478 -0.07768888
-0.08950233 0.027383551 -0.09608516 -0.018721934 0.06770518 0.1440586 -0.072151445 0.2184141
-0.08475914 -0.09639825 0.014723236 0.2077022 -0.09955863 -0.0415122 0.2270696 0.074537605
-0.042789254 0.032011893 -0.090872526 -0.020969583 -0.0741893 -0.07502365 -0.07183561 0.15986526
-0.031223224 -0.07888273 -0.04458265 0.19354634 -0.08051539 -0.019085696 -0.07264405 -0.09829747
-0.05611463 -0.08510044 -0.09639683 0.13451616 -0.08058253 -0.069905475 -0.06361647 -0.0718591

lstm.bias_hh_l0 f4 [256]
00000000: 6cd9 ccbd 93d8 9fbd 01f9 c0bd 2115 9cbd
00000010: db95 f23c 20bc 3ebc 6913 b7bd b5ac e13d
00000020: e377 09bc f210 9bbd 348d 36bd 65d4 81bd
00000030: 13d9 d1bd e651 20bd ba90 c6bd 6895 bcbd
00000040: 95e1 a0bd 23ad cdbd 289b d83d 3075 96bd
00000050: 9024 bcbd 27c4 d8bc 5116 c13d 6486 9ebd
00000060: 4e65 b8bd f863 0fbc 54e4 c3bd 1562 b5bc
00000070: 2468 5bbd 71a4 31be 1155 93bd 5a5f 6d3e
00000080: 9798 acbd a671 c9bd ac30 4fbc cce2 b83d
00000090: af0e cbbd 9f67 0ebd 099a c93d 36c8 1e3d
000000a0: b062 39bd 972f 9a3d d8e6 b8bd e9bf 92bc
000000b0: ae99 97bd eb4b 99bd 6a81 92bd 2066 c33d
000000c0: b625 06bd 9b14 a1bd be23 52bc 7643 e6bc
000000d0: 2383 a4bd b4f5 e0bc 7835 94bd 10cd c7bd
000000e0: 8a5e 25bd 21d3 adbd c970 c3bd c882 a73d
000000f0: e095 a4bd 302f 8ebd 86bd bbbc 96be 92bd
00000100: 05c7 07bd 9d2e ddbc 6519 1cbd 6398 cdbc
00000110: 0a3c 97bd e456 a9bd 0dcf 0abd 0329 2b3e
00000120: 0d0b 7fbd d283 00bd f064 87bd a362 833e
00000130: de60 0ebd 2eec 92bd 9dbc 19bd 9500 04bd
00000140: 8aa7 02bd 2288 15bd e625 343e 847d e2bc
00000150: 2873 e9bc ed74 33bd b7f9 253e 4fdf 11bd
00000160: 55a4 0dbd 619e bbbd 7458 09bd 4c54 153e
00000170: a072 a43e ba2c 8c3e 20bb f1bc 0bfa fd3c
00000180: 9128 03bd b754 d4bc 0fd3 c0bd a391 1e3e
00000190: 0e71 21bd 6ff8 aebc 553a 293e e6d2 c2bd
000001a0: cd89 f3bb 1612 0a3e f9f0 05bd 9a54 00bd
000001b0: 8374 10bd b2d6 16bd 06db f7bc 392b 213e
000001c0: 5033 88bd 4d52 08bd 3c3b 3fbd f149 133e
000001d0: 4dab febc 77ea 90bd 219c ebbc c68f 04bd
000001e0: 6c02 07bd a5a9 12bd 8271 07bd f63e 133e
000001f0: 5009 10bd 8ed1 a8bc 8de3 88bc d84a cbbc
00000200: 0603 be3a b5f9 023c 00db 98bc 2cba 043b
00000210: 8b9b a03c 713b 8a3c 321b 033b 6228 3e3e
00000220: 4af8 453b b008 243c 3218 823c 3191 85bd
00000230: 18fa 77bc 21dc 97bd f424 7a3b a647 debb
00000240: 599b ce3b 6489 a0bc f6e0 27be 77d5 ef3b
00000250: 1f8e 29bd eb0e 9a3c c33f 2d3e fc8d 333c
00000260: ddc8 8dbc 72a8 143d b663 863b 5211 7abd
00000270: b6bb 593d c9d0 953d 44eb 163c af0a ca3d
00000280: 781f 0c3b f778 f4bc 00e0 1c3d b9b2 2cbe
00000290: 5195 073c f83e 26bd 43eb 35be cd4b 203d
000002a0: 6e2e 44bc 1a92 16be 835a 573c bc31 053c
000002b0: d969 e53a 854a 503c e1db 833b 2171 3b3e
000002c0: ea64 0bbc b794 233c ba37 c03a b843 a93d
000002d0: 08ed 71ba eba6 963c 9be3 73bb f4bf 9abb
000002e0: 8b6d 543b b3f9 fdba b62d 883b 37e5 1c3e
000002f0: 991c faba b5b2 3b3c f77c 5abc eb0e 1b3c
00000300: f25a cdbd ab02 a1bd b7b6 c1bd 5fab 9cbd
00000310: b2a4 3a3d b6e1 8fbc d3de b7bd 3513 2d3e
00000320: 0c92 16bd 41ed 9bbd b82f 93bc d928 8f3e
00000330: d3e1 d3bd 16dd 18bd a43d c7bd 15a2 bdbd
00000340: e1e1 a1bd e131 cebd 7f24 7c3e 6ee5 96bd
00000350: 069f bbbd 36f1 603a 8db2 5c3e 581b 9fbd
00000360: 054d b7bd 5c53 e03c 48c8 c4bd c85e 99bc
00000370: 07a9 8a3d 2384 133e 21c4 93bd f2a7 5f3e
00000380: 3296 adbd 716c c5bd bc39 713c deaf 543e
00000390: 67e5 cbbd b108 2abd eb84 683e 27a7 983d
000003a0: cd43 2fbd e01e 033d 601b babd 62c8 abbc
000003b0: 8df0 97bd fea5 99bd 8c1e 93bd bdb3 233e
000003c0: dfc7 ffbc 428d a1bd 539c 36bd 0131 463e
000003d0: 3de5 a4bd ab59 9cbc 68c6 94bd 2f50 c9bd
000003e0: 64d8 65bd 2049 aebd b66b c5bd 99be 093e
000003f0: 7508 a5bd 972a 8fbd 5749 82bd dc2a 93bd
-0.100024074 -0.0780498 -0.09422494 -0.076212175 0.029612472 -0.011641532 -0.08939249 0.110192694
-0.0083904 -0.075715914 -0.044568256 -0.06339339 -0.10246482 -0.039140604 -0.09695573 -0.092081845
-0.07855526 -0.10042789 0.10576469 -0.073465705 -0.09186661 -0.02646072 0.09428085 -0.07740477
-0.09003697 -0.008751862 -0.095650345 -0.022141496 -0.053566113 -0.17347886 -0.071939595 0.23180905
-0.08427542 -0.0983613 -0.012645882 0.09027633 -0.0991491 -0.03476679 0.09843833 0.038765155
-0.04526013 0.07528608 -0.09028405 -0.017913776 -0.07402359 -0.07485183 -0.0715359 0.09540963
-0.032750808 -0.07865258 -0.012825904 -0.02810834 -0.08032825 -0.02746091 -0.07236761 -0.097559094
-0.040373363 -0.08487535 -0.095429964 0.081792414 -0.08036399 -0.06942594 -0.02291752 -0.07165258
-0.033148784 -0.026999766 -0.038110156 -0.025097078 -0.073844984 -0.08268526 -0.033888865 0.16714863
-0.0622664 -0.031375714 -0.06611049 0.2566119 -0.03476035 -0.07173954 -0.03753339 -0.032227118
-0.03189806 -0.03650678 0.17592582 -0.027647741 -0.028497294 -0.04381268 0.1620854 -0.035613354
-0.034580547 -0.09161068 -0.03353162 0.14582938 0.32118702 0.27377874 -0.029508173 0.031003019
-0.03202111 -0.025919301 -0.09415256 0.15485243 -0.039414458 -0.021358697 0.16526158 -0.09512882
-0.0074321986 0.13483462 -0.032700513 -0.031330682 -0.035267364 -0.036825843 -0.030255806 0.15739144
-0.06650412 -0.033281613 -0.04668735 0.14383675 -0.031087542 -0.070759706 -0.028760972 -0.032363676
-0.032961294 -0.035806317 -0.033067234 0.14379486 -0.03516513 -0.020607736 -0.016710067 -0.024815962
0.0014496751 0.007994105 -0.018659115 0.0020252569 0.019605419 0.016874047 0.0020005223 0.18570092
0.0030207806 0.010011837 0.015880678 -0.06521834 -0.015135311 -0.07415033 0.0038168998 -0.0067834435
0.00630514 -0.019596763 -0.1639441 0.007319148 -0.041395303 0.018805942 0.16918854 0.010959145
-0.017307693 0.036293454 0.004101242 -0.061051674 0.05315753 0.07315213 0.009211365 0.09865319
0.0021381062 -0.029842837 0.03829956 -0.16865052 0.008275346 -0.040587395 -0.17765526 0.03913479
-0.01197396 -0.14704171 0.013144138 0.008129533 0.0017502859 0.012713079 0.0040240143 0.18304874
-0.0085079465 0.009984187 0.0014665045 0.082648695 -0.0009228741 0.01839014 -0.003721452 -0.0047225896
0.0032413926 -0.0019376784 0.00415584 0.15321814 -0.0019082009 0.011456181 -0.013335458 0.009464006
-0.10027112 -0.07861837 -0.09458678 -0.07649874 0.045567222 -0.017563682 -0.08978047 0.16901858
-0.036760375 -0.07613612 -0.01796709 0.27960852 -0.10345807 -0.03732022 -0.09728554 -0.0925943
-0.07904411 -0.100681074 0.24623297 -0.07367979 -0.09161191 0.0008580865 0.21552487 -0.07768887
-0.08950237 0.027383499 -0.09608513 -0.018721953 0.06770521 0.14405875 -0.07215143 0.2184141
-0.08475913 -0.09639824 0.014723238 0.20770213 -0.099558644 -0.041512195 0.22706954 0.07453757
-0.04278927 0.032011867 -0.090872526 -0.020969573 -0.07418928 -0.075023636 -0.07183561 0.15986533
-0.031223236 -0.07888271 -0.044582676 0.19354631 -0.08051536 -0.019085726 -0.072644055 -0.09829747
-0.05611457 -0.08510041 -0.09639685 0.13451613 -0.08058254 -0.06990545 -0.06361645 -0.07185909

ln1.weight f4 [64]
00000000: 64a8 b63e f976 9c3e 9573 a83e 6684 b93e
00000010: 5243 6f3e ca9c ba3e 253b b73e d583 553e
00000020: fee1 8d3e 633a a53e 559c 8b3e a58b 2c3e
00000030: db9f cc3e 33b7 ac3e 025b b93e f6f5 ab3e
00000040: e261 ba3e 3302 bc3e 4bdb 8b3d f0c5 b33e
00000050: b0c8 bc3e eac7 613e 34e8 c23d f38d ab3e
00000060: 1c79 b23e 9ea9 853e 52f8 b03e a2a9 153e
00000070: d00c 4b3d 0381 9f3d c9b1 b93e 4cc7 743d
00000080: f32d bc3e 8192 b73e 4936 633e 837b ce3d
00000090: 390b b83e b2b5 5d3e 68d5 be3d 6ff7 603e
000000a0: fc9e 553e d317 963e 5be0 b83e 90f5 473e
000000b0: cc07 cd3e 8916 bf3e 9486 b63e 6689 443e
000000c0: 0b4a 833e 150a b93e 5685 a03e 5322 233e
000000d0: ad53 c03e 317f 703e fbb8 bc3e def2 bf3e
000000e0: f161 8f3e c2ce ba3e b3af c83e b350 523e
000000f0: 18ec b83e 51f3 b43e e1bf 553e ef3a b23e
0.35675347 0.3055952 0.32900682 0.36233824 0.23365524 0.36447746 0.3578731 0.20851071
0.2771148 0.32271108 0.2726771 0.16850145 0.3996571 0.3373352 0.36202246 0.3358609
0.36402804 0.36720428 0.06828936 0.35111952 0.36871862 0.22048917 0.095169455 0.33506736
0.34858024 0.2610597 0.34564453 0.14615491 0.049572766 0.07788279 0.36268452 0.059760377
0.36753806 0.3585396 0.22188677 0.10082152 0.35946062 0.21651343 0.09318048 0.21969388
0.20861429 0.2931505 0.3610867 0.19527268 0.4004501 0.3732188 0.3564955 0.19193038
0.25642428 0.36140504 0.31351727 0.15931062 0.3756384 0.2348602 0.3685988 0.3748998
0.2800441 0.3648587 0.39196548 0.20538597 0.36117625 0.35341886 0.20873977 0.34810588

ln1.bias f4 [64]
00000000: c2c5 d73c 2e4f b73c 0bfe b13c fb8b b73c
00000010: f84e a7bc 0291 e8bd 22bf a93c c567 f6be
00000020: 8cdb 9ebd 879c 9a3c 2d02 85bd 552d eb3e
00000030: a932 d33c e73a ba3c 158e cc3c a1c3 b63c
00000040: 1fd2 be3c cb6d e33c 4530 3f3e 1c66 b23c
00000050: 149b cf3c a17e 67bd 4f87 80be 90dc 973c
00000060: 9675 cd3c 4141 45bd 7c5f b63c 1efe 7abd
00000070: e668 173c 434b 9b3c 9cd0 9c3c fe12 313c
00000080: 5971 ab3c 3100 d03c 9de7 cbbc 8e1f 893e
00000090: 63b1 c23c ce34 3abd 64fa 813e fa5b 95bc
000000a0: 5bec 30bd 2c9e 063f 53bc bb3c 5dfa 47bd
000000b0: de47 993c 6630 993c 9737 b13c df3b e3be
000000c0: 2d74 22bd b804 b63c 617a adbd b206 c5be
000000d0: 6946 b03c f24a 60bd 1dac 9c3c 5d15 cf3c
000000e0: e7e4 dabb 66da 9d3c 7a57 d73c f0a1 eabe
000000f0: 36b5 b13c 4bc7 ae3c 243b 2dbd 597f b13c
0.026339415 0.022376623 0.021727582 0.022405615 -0.020423397 -0.11355783 0.020721022 -0.48126045
-0.07756719 0.018873466 -0.064945556 0.45933023 0.025780993 0.022733165 0.024970094 0.02231008
0.023293553 0.027762314 0.18670757 0.021777205 0.025342502 -0.056517247 -0.25103232 0.01853779
0.025080483 -0.048157934 0.022262327 -0.0612775 0.009241318 0.018956786 0.019142441 0.010807751
0.020928072 0.025390716 -0.024890715 0.26781887 0.023766225 -0.045460515 0.25386345 -0.018232334
-0.043194156 0.525851 0.022916948 -0.04882275 0.018711027 0.018699836 0.021632953 -0.44381616
-0.039661575 0.022219047 -0.084706075 -0.3848167 0.02151795 -0.054758973 0.019125039 0.025278741
-0.0066801193 0.01926918 0.02628683 -0.45826674 0.021692853 0.021335265 -0.04229273 0.02166717

linear.weight f4 [6, 64]
00000000: 0446 913d 9126 9a3d 392f a93d 2a6b 9e3d
00000010: 9c9d 01be 9b9e 30bd 0036 783d 48d7 353d
00000020: db2f f5bc dbb8 903d 1dc8 c0bc 7bb2 153d
00000030: 4da7 933d 965d 113e 53fb 983d 5386 a93d
00000040: 421f 873d 8b73 9c3d 997c c43d 69cb a93d
00000050: 9419 b53d 859c 6fbd 5ce2 8d3d dfe2 943d
00000060: 0b5d a13d 98ae bdbd 9aa8 9c3d 6ecd eebc
00000070: f255 e3bc 0c97 aabc 88f9 813d 8351 debd
00000080: 11a6 a73d f0cd 903d f44d 7bbd 7da3 d63d
00000090: 85a1 a03d e38a 21bd fdab cd3d 145b 15be
000000a0: 0852 10bd f8cc 183d 08e2 a23d 8143 1abd
000000b0: a926 9a3d e4f6 993d b89d a03d 0478 3a3d
000000c0: 032c 16bd c180 983d 1414 f4bc 3666 35bd
000000d0: 811d 8f3d 4632 5dbd b8ae 8b3d 52ee 9d3d
000000e0: 2dc7 03bd 3f44 973d 1efb 933d 7aaa 0e3d
000000f0: ad13 993d e73e 9a3d b716 31bd b12e 823d
00000100: 9e39 8c3d 9237 933d 4c2e 8d3d 37ff a03d
00000110: 0307 9abd 641d 21bd 581a 8c3d c3dd 493d
00000120: ae05 1bbd 1ac2 7f3d aba3 11bd b55d 373d
00000130: 1c09 8a3d 0230 ca3d 48f4 863d bc13 a13d
00000140: fa36 8c3d 1542 873d 1fe4 8d3d a940 913d
00000150: bea9 a23d 04bf 41bd 8a43 993d 53ee 8d3d
00000160: f4a5 973d 2f71 6ebd dabe 903d 64fd 19bd
00000170: 5aee 11bd 7615 0abd 7bc4 873d 9f9d 47bd
00000180: 8005 983d 6f0c 8d3d 5aec 56bd e54a a03d
00000190: 7761 983d 85d7 44bd 2fbb b23d 7e93 b2bd
000001a0: 7ee6 4abd 7c8e 1d3d f4e0 8b3d 7f59 7abd
000001b0: dbc8 7a3d 964c 983d 2415 8d3d d4f0 5c3d
000001c0: 8bcb 48bd 620e 8e3d 7eed 20bd 7415 33bd
000001d0: 202d 8d3d c35c 5dbd 0d5e 913d e09f 9e3d
000001e0: 62a4 2bbd 8216 863d a8e9 8f3d d312 183d
000001f0: a7f5 9b3d 1d92 863d db4f 54bd 2c88 8f3d
00000200: 68f9 873d b1a1 8e3d 448d 8f3d 5185 8a3d
00000210: e3d7 0fbd b3a4 1bbd 4db4 8d3d 81a6 603d
00000220: f542 2dbd 3647 8d3d a7ca 38bd 0e36 2d3d
00000230: 6281 893d febc 903d eb45 923d 6a0c 863d
00000240: a049 883d 67c8 a03d 8d0a 6b3d 77f1 8c3d
00000250: c9de 903d 15d6 3bbd 89b2 9c3d 1fcf 8f3d
00000260: 4759 7e3d 3a11 1fbd ec5a 8f3d 4396 1dbd
00000270: 807c 1fbd 3bf6 16bd 204f 753d 02aa 0ebc
00000280: 8674 993d 4ef6 983d 09fc 3cbd 31ed a73d
00000290: 3b1e 903d 7712 6abd 837f a53d 4887 09bd
000002a0: 0ec8 80bd 2a62 293d 28e2 8a3d e2b2 8cbd
000002b0: 3f38 903d 331b 963d e570 863d b2bf 573d
000002c0: 8b90 54bd c0d9 7b3d 3c26 2dbd 4b07 4fbd
000002d0: 4204 823d 2001 55bd fac8 853d d753 9d3d
000002e0: 2d10 39bd 252b 783d 8138 843d d189 2b3d
000002f0: a0bc 953d 81c1 843d 3692 64bd 43f4 8b3d
00000300: 26e6 863d 8853 8a3d 5173 a53d 6c9f 7c3d
00000310: d8b7 6cbc b86d 2abd 8dc7 853d 549a 723d
00000320: 79e5 31bd 61cb 7b3d 87e7 58bd 06a1 2e3d
00000330: daf9 903d d90e 4f3d b76b 993d fbc9 8b3d
00000340: b038 893d d917 933d 5a18 563d c598 823d
00000350: a0c2 923d 5040 2ebd 5921 913d a461 873d
00000360: 88ad 723d e871 febc fa5c 933d 4f89 32bd
00000370: c7db 3cbd 08b2 2bbd 4617 6f3d 4666 c83b
00000380: 7a37 883d 6e15 833d 01ed 30bd 8568 ad3d
00000390: 5921 8c3d 7069 8bbd 2849 913d 0808 2cbc
000003a0: b16d 90bd 8370 343d c7e2 873d 6135 83bd
000003b0: 8f80 8a3d b7ee 913d e8f8 903d 94a7 583d
000003c0: 340b 4abd b62a 903d 3cac 44bd f709 3bbd
000003d0: abaa 823d 774c 51bd 828e 913d 426a 973d
000003e0: ae00 3fbd 8dfa 723d 77a8 913d c45d 393d
000003f0: b6cb 8f3d 5c0f 8c3d 049b 70bd 8f2b 8c3d
0.070934325 0.07526887 0.0826096 0.07735284 -0.1265778 -0.043120008 0.060598373 0.04439476
-0.029930046 0.070665084 -0.023532921 0.036547165 0.072096445 0.14195856 0.07469811 0.082775734
0.06597759 0.076392256 0.095940776 0.082907505 0.08842769 -0.058498878 0.0692794 0.07269835
0.07879075 -0.09261817 0.07649346 -0.02915069 -0.027750943 -0.020823978 0.063464224 -0.10855391
0.081859715 0.070705295 -0.06135364 0.10480402 0.078433074 -0.039439093 0.1004257 -0.14585525
-0.03523448 0.03730485 0.07953268 -0.037662033 0.07526905 0.07517794 0.078425825 0.045524612
-0.036663067 0.07446433 -0.02979473 -0.04428693 0.06988049 -0.054003023 0.06820434 0.077114716
-0.03217237 0.07386064 0.07225631 0.034830548 0.07474456 0.07531529 -0.043234553 0.06356562
0.06846927 0.071883336 0.06893596 0.07861178 -0.07520869 -0.03933467 0.06840962 0.049283754
-0.037847213 0.06244097 -0.035556477 0.0447671 0.06740019 0.09872438 0.06589562 0.07865092
0.068464234 0.06604401 0.06928276 0.07092411 0.07942532 -0.047301307 0.07483585 0.06930222
0.074047 -0.05821341 0.07067652 -0.037595168 -0.0356277 -0.033711873 0.066292726 -0.048734304
0.07422924 0.06887137 -0.052471496 0.07826785 0.07440465 -0.048057098 0.08727109 -0.08719538
-0.04953622 0.03846596 0.06830016 -0.061120506 0.061226707 0.074364826 0.06888798 0.05394061
-0.04902224 0.06936337 -0.03928899 -0.04372163 0.068933725 -0.054043543 0.07098017 0.077453375
-0.041904815 0.06547262 0.07026988 0.037127327 0.07615214 0.06570838 -0.05183397 0.070083946
0.06639367 0.06964434 0.07009366 0.06763709 -0.035117995 -0.037998866 0.06919155 0.05484629
-0.042300183 0.06898348 -0.04511514 0.04228788 0.06714131 0.070672974 0.07142242 0.065453365
0.06654668 0.07850724 0.05738311 0.06881993 0.07073743 -0.04585846 0.076512404 0.07021927
0.06209686 -0.038834788 0.06999764 -0.03847338 -0.03893709 -0.036855917 0.059889913 -0.008707525
0.07492928 0.07468854 -0.046138797 0.081995375 0.07037016 -0.057146516 0.080809616 -0.03357628
-0.062881574 0.041353382 0.06781417 -0.06870057 0.07041978 0.073294066 0.06564502 0.05267305
-0.05189566 0.06148696 -0.04227279 -0.050544064 0.06348468 -0.052003026 0.06532474 0.07682007
-0.045181442 0.06058802 0.0645609 0.04187948 0.07311368 0.064822204 -0.0558035 0.068336986
0.06586866 0.067542136 0.080786355 0.061675474 -0.014448129 -0.041608542 0.06532202 0.05922921
-0.043431733 0.061473254 -0.052955177 0.042634033 0.070789054 0.05055127 0.07491248 0.06825634
0.067002654 0.07182283 0.052269317 0.06376795 0.07166028 -0.042541802 0.07086439 0.0661042
0.059247524 -0.031060174 0.07195468 -0.04358798 -0.046108034 -0.04191783 0.058371805 0.0061157076
0.06651206 0.06400572 -0.043194775 0.08467201 0.06842298 -0.0680722 0.070940316 -0.010499962
-0.07052172 0.044052612 0.06635051 -0.064066656 0.06762802 0.07125609 0.07078725 0.05289419
-0.04932709 0.070393965 -0.048015818 -0.0456638 0.063802086 -0.051098313 0.07107259 0.07393314
-0.046631508 0.059320975 0.0711221 0.045255437 0.07021277 0.06838867 -0.058741584 0.06844246

linear.bias f4 [6]
00000000: 1b96 c53d 367c c53d 61af c43d 9a93 c53d
00000010: c361 c43d 4f98 c63d
0.09647771 0.09642832 0.09603763 0.096472934 0.09588959 0.09697019
